testPyTorch/model_BMES_20.pkl (torch_old, 102189 bytes, 14 tensors)

hidden f4 [2, 1, 2]
000000 0d 82 7f 3d 91 a3 5e 3e bf 41 13 bd 96 31 7e be
       0.062379885 0.21742083 -0.035951372 -0.24823603

hidden f4 [2, 1, 2]
000000 8a 5d 36 3f a6 6d e5 3f 09 14 1a bd 54 41 a4 be
       0.7123648 1.7924087 -0.037616763 -0.3208109

transitions f4 [5, 5]
000000 6a 9d 91 bf 1a 6c d4 bf 47 1f 2e 3e b8 68 f3 bc
       -1.1376164 -1.659549 0.17004119 -0.02971302
000010 28 d2 16 c6 00 ee 8b 40 9d 7f 87 40 d1 ab c8 c0
       -9652.539 4.3728027 4.234328 -6.2709737
000020 e6 54 5b c0 28 d2 16 c6 62 9e 20 c0 3c 79 87 3f
       -3.4270568 -9652.539 -2.509667 1.0583873
000030 92 81 43 40 02 ef 1d 40 28 d2 16 c6 28 d2 16 c6
       3.0547833 2.4677129 -9652.539 -9652.539
000040 28 d2 16 c6 28 d2 16 c6 28 d2 16 c6 28 d2 16 c6
       -9652.539 -9652.539 -9652.539 -9652.539
000050 7f 36 c8 3d d4 dd 92 bf fd b7 22 40 4a 7e 4a be
       0.09776019 -1.1473947 2.5424798 -0.19774738
000060 28 d2 16 c6
       -9652.539

weight f4 [3951, 5]
000000 76 bc bb bf d4 d2 37 bf 50 ab 21 bf 31 47 c7 bf
       -1.4666889 -0.71806073 -0.6315203 -1.5568601
000010 54 97 c3 bd 48 33 98 bf d8 33 c3 bf bb 5e c5 bf
       -0.09550348 -1.189065 -1.5250196 -1.5419534
000020 c0 44 4a be 1a c0 87 3f b7 c0 93 bf 1f d3 ad be
       -0.19752789 1.06055 -1.1543187 -0.33950135
000030 e9 68 2d bf 1f 5a 7e 3f 96 77 29 bf df c7 03 3f
       -0.67738205 0.99356264 -0.661981 0.51476854
000040 a6 d7 53 bf 4a 33 84 bf 42 44 20 3f 7f fc 9e 3e
       -0.8275093 -1.0328152 0.62604153 0.31052014
000050 bf dd 3f 3f b9 00 87 3e 54 a4 3f bf 70 8c 26 3f
       0.7494773 0.2636774 -0.7486012 0.6505804
000060 f8 06 92 3f f4 ff a6 be cb 73 ec bf 64 85 ac bf
       1.1408377 -0.32617152 -1.8472837 -1.3478208
000070 d5 c0 17 bd c7 14 5a bf 40 6d 45 bf 84 e9 e1 3e
       -0.037049133 -0.85187954 -0.7711983 0.4412347
000080 e6 4d cc 3f 53 e7 a8 3d da ec 85 3e 7a ec 3b bf
       1.5961273 0.082472466 0.26157266 -0.7340771
000090 15 5e 5f 3e f6 6e 38 3d 8f dc 16 3e c8 5b e2 be
       0.21813233 0.045027696 0.14732574 -0.4421065
0000a0 ad ba a9 bd f5 22 d6 3e da ee 20 be 97 50 6a bd
       -0.08287559 0.41823545 -0.15716115 -0.057205763
0000b0 2a ac 0b 40 7a ed 95 bf d0 7d d6 3f 89 5e ec be
       2.182383 -1.1713097 1.6757145 -0.46165875
0000c0 a4 34 3b bf b9 7b 32 3f ee 68 ce 3d 0e be a5 be
       -0.731272 0.69720036 0.100786075 -0.32371563
0000d0 eb 6d 20 3f ad b9 c4 3e 52 98 66 3f f4 56 c9 3f
       0.6266772 0.3842291 0.9007617 1.5729661
0000e0 62 5c a4 3e 1a bc 76 3f 51 52 9e 3d a1 c1 4f bf
       0.32101732 0.9638077 0.07730544 -0.8115483
0000f0 31 34 cc 3f 91 dc 6d bf 21 b6 49 c0 17 56 5a bf
       1.5953428 -0.9291468 -3.1517413 -0.8528761
000100 f7 f6 dc bd 97 17 73 bf 6a 48 14 bf da 81 7d bf
       -0.10789292 -0.9495787 -0.57922995 -0.9902626
000110 81 cd 8d be cc 09 19 bd 62 e0 cc 3f 5e 61 98 bc
       -0.2769585 -0.03736286 1.6005976 -0.018601116
000120 31 41 40 bf 46 29 8a be 35 44 81 bf 69 79 a6 bf
       -0.75099474 -0.26984614 -1.009894 -1.3005801
000130 95 a6 56 be 3b 44 e3 be 0f 75 4c 3f 39 06 36 bf
       -0.20961984 -0.44387993 0.7986612 -0.71103245
000140 cc 6d 18 bf 07 49 a2 3e 69 d8 1d bf 19 d1 3d 3f
       -0.59542537 0.3169634 -0.6165834 0.7414718
000150 9f ad b0 bf 3f 23 cf be 05 b3 02 3f d5 41 02 be
       -1.3802985 -0.40456578 0.5105441 -0.12720425
000160 86 6f 99 3e 5e 93 70 be 6d c7 7a bf da 73 43 3f
       0.29967898 -0.23493716 -0.9796055 0.7634865
000170 93 76 84 bf c0 84 ed be 1b dc 4c 3e dd 7c dc 3f
       -1.0348686 -0.46390343 0.20005839 1.7225605
000180 1b e8 38 3f 28 e3 90 3f 79 44 69 3f 46 d2 72 bf
       0.72229165 1.1319323 0.91120106 -0.948521
000190 be 2a ad 3f 09 f4 3e bf 90 93 5e bf c3 34 88 3f
       1.3528669 -0.7459112 -0.8694391 1.0641102
0001a0 f8 07 9d 3f b7 cb e7 3e 90 f3 6a be 2d c4 65 3e
       1.2268057 0.4527261 -0.22944474 0.22438116
0001b0 3b 20 e2 bf b1 cc bb be c1 ce b8 bf aa 25 c7 bf
       -1.7666086 -0.36679605 -1.4438096 -1.5558369
0001c0 59 bd 0c 3f 34 60 14 bf 67 95 a0 3f af 64 4a 3f
       0.5497642 -0.57959294 1.2545594 0.7905988
0001d0 a0 82 55 3e 23 0d 9d 3e 4c 03 04 3f 45 e9 c7 be
       0.2085061 0.30674085 0.5156753 -0.39045158
0001e0 f4 f6 14 40 20 2a 24 be 2e d6 71 3e 2d 0b 03 40
       2.3275728 -0.16031694 0.2361686 2.047557
0001f0 5c bc ef bf da 48 c9 3f bf 28 3a 3e ae 54 c1 3e
       -1.8729358 1.5725358 0.18179606 0.37759918
000200 77 72 3c 3f 9f e6 d1 bf 78 6f 12 3f fe f0 82 3f
       0.7361216 -1.6398505 0.5720134 1.0229795
000210 63 d1 82 be 1c 7a e2 bf 9a b3 0c 3f 34 2f 48 bf
       -0.25550374 -1.7693515 0.5496155 -0.78197026
000220 d4 0e c8 bf 8f f9 e6 bf ca 64 05 3f 6d c7 22 3f
       -1.5629525 -1.8044909 0.52106917 0.6358555
000230 ff 96 0c 40 3d fe 1e 3f 9f a2 da 3f ce 59 da bf
       2.196716 0.62106687 1.7080878 -1.7058656
000240 70 72 a7 bf 53 67 c4 be e7 be f9 3f c1 02 00 3f
       -1.3081799 -0.3836008 1.9511384 0.500042
000250 82 1c b8 3d 49 f0 09 3d e5 3a f2 3e 10 fe c3 bf
       0.089898124 0.03367642 0.47310558 -1.5311909
000260 82 df f9 3e 07 46 09 3e 71 11 75 3e bb f1 80 3f
       0.48803335 0.1340562 0.23932435 1.007377
000270 8c 2a e0 3f 66 73 f4 3f b1 4f b1 be 6f 5d 27 40
       1.7512984 1.9097717 -0.34631112 2.6150777
000280 44 e2 23 3f c3 a1 36 be 9c 6c 44 bf 56 b6 01 bf
       0.6401713 -0.17835145 -0.76728225 -0.5066885
000290 b9 48 0a bf 4a a9 2e bf e0 c4 08 3f 65 9f 77 3f
       -0.54017216 -0.68227065 0.5342541 0.9672759
0002a0 48 a7 40 3e 99 36 c9 3f 9b b4 7a 3f 90 05 ed bf
       0.18813813 1.5719787 0.9793183 -1.8517323
0002b0 cf 59 86 be 94 ea 4d bf 59 7e 88 3d 2d c4 0a be
       -0.26240394 -0.8043606 0.06664724 -0.13551398
0002c0 b3 67 6f 3f bd 1d 91 3f 93 86 0a 3f f8 69 c3 3f
       0.9351761 1.13372 0.54111594 1.5266714
0002d0 65 65 44 bf 48 64 db 3c 7a 99 da bd 59 31 d4 be
       -0.76717216 0.026781216 -0.106738046 -0.414439
0002e0 d2 58 dd 3f d8 4d b1 be c5 26 9a 3e 23 e4 a6 3f
       1.7292731 -0.34629703 0.30107704 1.3038372
0002f0 29 83 15 3e 6c 18 79 3f c2 66 00 bf 9e a7 73 3f
       0.14600815 0.9730289 -0.50156796 0.9517764
000300 eb a7 1d bf 67 9c 66 3f 36 f2 bf 3f ed 51 2f be
       -0.6158435 0.900824 1.4995792 -0.17121096
000310 35 79 d2 3e 47 2b cf bf c3 86 32 c0 e9 ec fd be
       0.411081 -1.6185082 -2.7894752 -0.4959481
000320 f2 ae fe be bc 24 79 3f 98 4d 45 bf 11 6a 19 3f
       -0.49742848 0.9732168 -0.77071524 0.5992747
000330 26 b6 b0 bf 30 7e 4f 3e 64 5d 36 3f d5 1d 3d be
       -1.3805587 0.2026298 0.7123625 -0.18468411
000340 53 87 2c 3f 3e fb 71 3f c7 b0 14 bf 70 57 a7 3f
       0.6739399 0.9452399 -0.5808224 1.3073559
000350 bd ca 49 3e 26 17 f2 3f 22 de de 3f 90 5e a8 3f
       0.19706245 1.8913314 1.741154 1.3153858
000360 b4 ab 71 bf 6a 88 98 3f 82 e1 91 3f ca e7 05 bf
       -0.94402623 1.191663 1.1396945 -0.5230681
000370 d0 6d 5f 3e d5 99 0e bf 86 2d b4 3f 58 52 d9 3f
       0.21819234 -0.5570348 1.4076393 1.6978254
000380 a8 2b cc 3f 85 63 c7 be 93 e1 bd be ad bf b2 bf
       1.5950823 -0.38943115 -0.37086162 -1.3964745
000390 4b 63 9f 3f 28 f8 98 3f 4e 4b 9a be b6 1f 20 3f
       1.2452177 1.1950731 -0.30135578 0.6254839
0003a0 63 d6 85 bc 25 7f 81 3f f6 c7 87 3f d6 6d 73 bf
       -0.01633758 1.0116926 1.0607898 -0.9508947
0003b0 ad 53 bf 3f ce 9f 01 c0 09 7f 8a bf 15 93 e3 3e
       1.4947411 -2.0253787 -1.0820018 0.44448152
0003c0 14 2b 52 3e 53 36 69 3f 67 85 b5 3f 87 6a 09 bf
       0.20524246 0.9109852 1.4181336 -0.5367817
0003d0 e8 ca 37 bf 52 dc 7d bd c6 df 5f bd 89 22 92 3d
       -0.71793985 -0.061977692 -0.054656766 0.07135493
0003e0 fa 88 bd 3e 8f a8 d2 be 43 58 93 be 07 e7 a8 3e
       0.37018567 -0.41144225 -0.28778276 0.3298876
0003f0 5e 85 00 bf 4d 28 ce bf 70 be 09 bf b1 f0 01 3f
       -0.502035 -1.6106049 -0.5380621 0.5075789

weight_ih_l0 f4 [8, 5]
000000 48 6f d8 bf fe a5 5b 3f 9c 5b 07 3f 85 76 dc 3f
       -1.690896 0.8580016 0.5287416 1.7223669
000010 ba 9f dd 3e aa bc 50 bf 84 6f 01 3e 1b 20 d5 3e
       0.43285924 -0.8153788 0.12640196 0.41626057
000020 41 44 54 3f 48 38 e5 3d 18 ae f4 3e 36 81 d5 be
       0.8291665 0.111923754 0.47789073 -0.41700143
000030 f9 07 1d 3f bf 6c da bd 34 83 ba be 9e fc af bd
       0.6134029 -0.10665273 -0.36428225 -0.08593105
000040 6a 73 d9 be 27 5e 95 bd 01 30 e9 3d f3 e0 92 be
       -0.42470866 -0.07293349 0.11386109 -0.28687248
000050 22 51 f2 be 8b 16 3a c0 5f 54 cd 3d 64 bc a8 3e
       -0.47327524 -2.907626 0.10025858 0.3295623
000060 87 31 95 3f f4 70 c4 be fc f0 17 be a3 75 8c 3b
       1.165574 -0.38367426 -0.14838022 0.0042864843
000070 91 4d f6 3e aa fb c2 3e 5a 77 4f 3e 62 5f 56 3f
       0.48106053 0.3808263 0.20260373 0.8373929
000080 9b 9c 6a bf 3a f0 74 be 5f 78 f0 3c fc 8e 59 3f
       -0.9164521 -0.23919764 0.029354272 0.849838
000090 dd 66 32 3f a3 64 43 bf 1f 32 83 be 82 9d 74 bf
       0.69688207 -0.76325434 -0.25624177 -0.9555284

weight_hh_l0 f4 [8, 2]
000000 e1 d7 e5 3e 4f a6 35 3f 1b 5e 20 3f 85 dd 6c 3f
       0.44891265 0.7095689 0.62643594 0.9252551
000010 c6 20 a6 3e 3c 21 0c 40 e3 41 8a bf e5 03 3c bf
       0.3244688 2.1895285 -1.0801357 -0.7344344
000020 53 46 dc 3e 78 2c 6f 3e e0 40 a5 bf dc 64 13 c0
       0.43022403 0.23356807 -1.2910423 -2.303031
000030 4c 92 d6 bf b8 8b eb 3e bd 9e c2 3e 54 c5 0b bf
       -1.6763396 0.46005034 0.38011733 -0.54597974

bias_ih_l0 f4 [8]
000000 67 9c be bf ea e6 12 3e 1d 1e e5 3e a8 41 f4 3d
       -1.489148 0.14345899 0.44749537 0.119265854
000010 03 40 4a bf 4a 40 01 3f 0e 59 d9 be 84 80 86 3f
       -0.79003924 0.5048872 -0.42450756 1.050797

bias_hh_l0 f4 [8]
000000 06 06 28 c0 70 c1 57 3e b5 bb af 3e 2b 00 06 bf
       -2.6253676 0.21069884 0.34322897 -0.52344006
000010 fc 29 83 bf cb 65 56 3e 94 fb 53 3e 68 8b 9f 3f
       -1.0247188 0.20937268 0.20701438 1.2464418

weight_ih_l0_reverse f4 [8, 5]
000000 83 52 25 c0 77 af 94 bf d4 a0 0a bf 81 38 38 3f
       -2.583161 -1.1616048 -0.54151654 0.7196122
000010 0d 32 b0 bf 23 24 84 bf a1 e5 90 3f b1 28 9a be
       -1.3765274 -1.0323528 1.1320077 -0.3010917
000020 d5 6d 92 3e 82 79 b2 be 72 5b 9e 3c c6 6e 56 3d
       0.2859942 -0.34858328 0.019330714 0.052351736
000030 26 a5 8d be 21 99 af be 6f 18 dc bd 1c 52 e6 3f
       -0.2766506 -0.34296516 -0.10746848 1.7993808
000040 6c 0b 12 3f 6b 94 9c 3e 50 61 41 bf da 68 bc 3e
       0.5704868 0.30581984 -0.7553911 0.36798745
000050 8a 27 8f bf 7b cf e2 3f 2c 07 b0 be 0a c4 96 bf
       -1.1183941 1.7719568 -0.34380472 -1.1778576
000060 38 b9 47 c0 9e 3c 18 3f bd c0 e0 3b 18 aa 6f bf
       -3.1206799 0.59467494 0.0068589137 -0.9361892
000070 de cf 0a 40 e5 46 53 3f b4 98 51 3f 9c ff fe be
       2.1689372 0.8253005 0.8187363 -0.4980439
000080 86 25 6f 3f d6 0e 61 be b0 d3 c2 3f 8f 28 a9 bf
       0.9341663 -0.21978316 1.5220852 -1.3215503
000090 e6 78 26 3f 6a 4f 24 be 31 aa 03 3f 3f 3a 46 be
       0.65028226 -0.16045919 0.51431566 -0.19358157

weight_hh_l0_reverse f4 [8, 2]
000000 1e 20 cc bf fc 86 51 bf fb 64 52 bf f2 20 bb bf
       -1.5947301 -0.81846595 -0.82185334 -1.4619429
000010 78 96 4d be aa 43 92 40 51 9a 08 3f 87 1d 51 3f
       -0.2007693 4.57076 0.5336047 0.8168568
000020 ca ea 82 be 11 97 08 40 58 36 59 3e 16 82 b3 bd
       -0.25569755 2.1342204 0.21212137 -0.08765046
000030 86 4c ea bf 39 7d 1f 40 48 ad c8 bf 3b 49 99 3e
       -1.8304603 2.492018 -1.5677881 0.29938683

bias_ih_l0_reverse f4 [8]
000000 af 14 bf bf 62 da a8 bf 32 d5 9d bf 49 18 c3 3f
       -1.4928187 -1.3191645 -1.2330687 1.5241786
000010 27 74 80 3e 59 b9 85 bf 73 5a b5 3f 90 8d 90 3e
       0.25088617 -1.0447189 1.4168228 0.28233004

bias_hh_l0_reverse f4 [8]
000000 ad 88 5a bf d6 28 8c bf 21 53 2b bf a5 41 4b 3f
       -0.853648 -1.0949962 -0.6692372 0.7939704
000010 46 df e5 3e 99 2a dc bf d6 1c 5a 3f a9 b2 3b 3f
       0.44896907 -1.72005 0.8520025 0.7331949

weight f4 [5, 4]
000000 c2 0e 21 3f a5 30 11 40 29 10 5c 3f 44 3d 34 bf
       0.62913144 2.268594 0.8596216 -0.70405984
000010 1d fd 8c 3f 3b f2 e6 bf e3 88 2a 40 a6 33 d4 3e
       1.1014744 -1.8042673 2.664605 0.41445655
000020 7e 24 39 c0 0e c4 48 bf 3b db 4e c0 d4 d9 85 be
       -2.8928523 -0.78424156 -3.2321308 -0.26142752
000030 ac dd b2 be 82 b4 de be 54 67 74 be be 56 da 3e
       -0.34934747 -0.43497092 -0.23867542 0.42644304
000040 2c 64 51 be 01 5b 9e 3e e6 77 c5 be 3c e4 f8 bd
       -0.20448369 0.30928805 -0.38568038 -0.12152907

bias f4 [5]
000000 12 24 93 bf ac 66 75 3d 17 8b f5 3f ec e6 24 bc
       -1.1495383 0.05991237 1.9183072 -0.010064822
000010 b0 95 a3 be
       -0.3195014
