testPyTorch/model_5_100.pkl (torch_old, 92771 bytes, 14 tensors)

hidden f4 [2, 1, 2]
00000000: 9377 edbb cd89 383f 8f4a a1bc 793c 14bd
-0.0072469204 0.7208527 -0.019688873 -0.036190484

hidden f4 [2, 1, 2]
00000000: 0d1a 26bf a2cf 683f 0aa9 edbe c39a 16bd
-0.648835 0.9094182 -0.4641803 -0.036768686

transitions f4 [5, 5]
00000000: 761e 17c0 c2e5 05bf 13b0 c43e dd34 e33e
00000010: bc87 04c6 56c8 b040 74c7 b240 35ab e8c0
00000020: c7bc 63c0 bc87 04c6 6b21 75c0 516b 03bf
00000030: b5e4 3040 dd0e 8840 bc87 04c6 bc87 04c6
00000040: bc87 04c6 bc87 04c6 bc87 04c6 bc87 04c6
00000050: 3d1c 79bf 9746 9cbf 13a9 a340 9c17 ca3e
00000060: bc87 04c6
-2.3612342 -0.5230371 0.38415584 0.4437627 -8481.934 5.524455 5.5868473 -7.2708993
-3.558397 -8481.934 -3.8301647 -0.51335627 2.7639592 4.2518144 -8481.934 -8481.934
-8481.934 -8481.934 -8481.934 -8481.934 -0.97308713 -1.2209042 5.114389 0.39471138
-8481.934

weight f4 [3435, 5]
00000000: 4e07 aebf 1491 11bf 10a9 dbbe a121 a5bf
00000010: 0351 0c3e c73c 8ebd 5086 1abd 013d ccbf
00000020: d95d 3cbf 774e 0e3f aed4 a3bf ce4b c0be
00000030: 3225 1fbf 8878 b63f 8110 fe3d 6682 ad40
00000040: cabd cbbf 34e1 0fbf b3b5 1d40 6716 ae3f
00000050: 9078 c0bd 63b9 253f 13b6 20bd 0746 15bf
00000060: a1a0 933d 530d 543f 9be5 c9bf a99f d0bf
00000070: 1c72 e03e 389c a5bf 5b0c 033e 3220 a4c0
00000080: 20ca aa40 8440 16bf a7c5 ab3f acab 4bbf
00000090: 985d dc3e 4727 6abf 0a7b 9a3e 40cc 0ebd
000000a0: 8d20 33bf 2dbb 92bf 4ca6 a83e 2c41 dfbd
000000b0: 7745 943f 6828 cfbe fe90 913f cd8e a2bf
000000c0: 7fab 81be 7b5c 1fbd e576 ca3e 3425 bebe
000000d0: 21e9 c6bd 1346 87be 0d8c 6e3f c80d c93f
000000e0: e189 463f f474 753e eaa5 8fbe 8a01 1e3e
000000f0: 54af 2e3f c2e9 1bbc c03b 3ec0 1c89 f43e
00000100: c29a 833e 36c9 a7bf 7be8 91bf cf31 89bf
00000110: 798e 383e e959 1c3f e7fc c53f 9745 95bf
00000120: 6951 95bf 0c4c d1be 9a8e 2f3e b6f3 2cbf
00000130: 1b94 b9be ec10 01bf 5c32 ca3e 7dd4 4fbf
00000140: 670c ddbe 67f4 9c3d 7ddc 0cbf 97f5 1d3f
00000150: 9074 9cbf 9a76 21bf 7dce 803e dae8 84be
00000160: a6f8 ea3d 7c45 f9bd a8d9 8fbf e224 dd3e
00000170: 4713 20bf 91cd 11bf efa8 423e 1f31 903f
00000180: 1ccf 4e3f cb74 d53d d3c7 773d 9565 16bf
00000190: 3f02 943e 9686 323e c0c2 48bf 8d9e 05bf
000001a0: 9cb2 e23d 73d3 563f 64d6 663e bd3a 2ebf
000001b0: 5100 a9bf 5310 6ebf 068f f7be a899 62bf
000001c0: cfa7 433f 8d46 9dbf 0339 d13f 2213 023f
000001d0: b7d0 19bd e7ac 2e3f 2e1e c23e 728a 12bf
000001e0: 1857 e73f 40cd 9dbe 84dc 1e3e 3b96 dd3f
000001f0: c954 debf 0cc6 a93f 57fd 743e 2db8 273f
00000200: 58c6 c33e cdf2 c6bf b5bf 343f ec64 b03f
00000210: 13c8 d5be e23c bbbf 9171 793f d389 a2bf
00000220: f3f8 dabf 00d7 8dbf d30f 5fbe 3f97 553f
00000230: a624 a23f 0588 6b3e dcf6 673d f87b 0fc0
00000240: 1a71 10c0 b1bb 5fbf 8fec c63f 4466 c9be
00000250: 422e 743e ee2f d53d 3ab7 ac3f 891f d4bf
00000260: 5b43 123f bbca 29bf 4b88 fc3d d089 823f
00000270: 6ac9 b83f bf08 e6bd 8d43 fcbe f709 863f
00000280: d473 a63e 36aa 55be d40e 29bf 016f bcbe
00000290: 7776 1fbf 065e 34bf 6b3b 533f b339 4d3f
000002a0: 7a48 683e 93b2 ae3f a621 223e f0a8 7ebf
000002b0: 49a1 27bf 7d70 4dbf a521 babe 6ab7 eebe
000002c0: 2b27 323f b9b8 8d3f 7f58 243f 1582 ad3f
000002d0: 7dd6 43bf 6255 fcbd 5b91 7e3f adf8 993e
000002e0: 527f 8e3f 2b0f d8be da75 033f 70ec 413f
000002f0: 92df 8b3d d896 adbf 7a6a 82bb d2e9 1c3f
00000300: 1e9f cbbe 0271 e83f 1b8c bf3f 94a9 10bb
00000310: f7bd 683f e8f5 debf 4e43 83bf 8db0 5f3e
00000320: ee0e 80be 1232 083f 95ca 77be b3f6 a0be
00000330: 911f fbbf 3ca7 b4be 49aa 643f b334 933f
00000340: 1854 e63f 24c0 593f d2ce 23bd 0120 713f
00000350: d96a 91bf 8913 a13f f254 ba3f 1d10 e63f
00000360: 9e53 b5bf bbaf 4a3f 335d a13f 0252 873e
00000370: 9706 453e 7ade 4fbf a1b3 393f 0ef5 543f
00000380: c587 533e 0e5f 27bf 3fc3 c13d dc3d b5bf
00000390: 23cf 403f 0eda 9a3f c665 6c3e 8f29 fe3c
000003a0: 42e4 663d 3055 713e 3970 873f d8f0 81bf
000003b0: 20eb b13f 4795 16c0 2f7b 4cbf eb62 063e
000003c0: b77a e4be ffbc 8fbe 46c5 b33f 1a25 4abf
000003d0: 3acc cabf 72fd 113f e8fc 84bf c450 6abe
000003e0: 7288 493f a423 c73f 2673 d2be 4a0e b63f
000003f0: 0d91 0bbe 0bbb 1fbf 6a42 163f 670c 733f
-1.3595979 -0.56861997 -0.42902422 -1.2900888 0.13702779 -0.06945186 -0.037725747 -1.5956117
-0.735807 0.5558848 -1.279928 -0.37557834 -0.6216613 1.4255533 0.124054916 5.422168
-1.5917294 -0.5620301 2.464215 1.3600587 -0.093979955 0.64736 -0.03923614 -0.5830998
0.07208372 0.8283283 -1.5773195 -1.6298724 0.4383706 -1.2938299 0.12797682 -5.12893
5.3371735 -0.58692193 1.3419694 -0.79558825 0.43040156 -0.9146618 0.30171996 -0.034862757
-0.69971544 -1.1463372 0.32939374 -0.109011024 1.1583699 -0.40460515 1.1372373 -1.2699829
-0.25326154 -0.038906556 0.39543834 -0.3713776 -0.097124346 -0.2642065 0.9318245 1.5707331
0.77554137 0.23970395 -0.2805627 0.15430275 0.6823628 -0.009516181 -2.9723969 0.47760856
0.25704008 -1.310828 -1.1399072 -1.0718325 0.18023099 0.6107469 1.5467805 -1.1661862
-1.166547 -0.40878332 0.17144242 -0.67559373 -0.36245808 -0.50416446 0.39491546 -0.81183606
-0.43173525 0.076638035 -0.5502394 0.61702865 -1.2223072 -0.63071597 0.25157538 -0.25958902
0.11473207 -0.12171456 -1.1238298 0.43192202 -0.62529415 -0.56954294 0.19009756 1.126499
0.80784774 0.10422667 0.0604933 -0.5874875 0.28907964 0.17434153 -0.78422165 -0.52195054
0.11069223 0.83916396 0.22542721 -0.6805838 -1.3203222 -0.9299366 -0.48351306 -0.8851571
0.7642793 -1.2287155 1.6345524 0.50810444 -0.03755256 0.6823258 0.3791365 -0.572425
1.8073454 -0.30820656 0.15513808 1.7311472 -1.7369624 1.3263564 0.23924766 0.65515405
0.38237262 -1.5542847 0.7060502 1.3780799 -0.41754207 -1.4627955 0.97438914 -1.2698311
-1.7107223 -1.1081238 -0.2178338 0.8343391 1.2667434 0.23001106 0.056631908 -2.2419415
-2.2569032 -0.8739577 1.5540942 -0.39335835 0.23845771 0.104095325 1.3493416 -1.6572124
0.57134026 -0.6632497 0.12330683 1.0198307 1.4436467 -0.11232137 -0.49270287 1.0471791
0.32510245 -0.20865712 -0.6603825 -0.3680344 -0.6229014 -0.7045597 0.8251254 0.8016617
0.22683898 1.3648247 0.15833148 -0.9947653 -0.65480477 -0.8024977 -0.36353794 -0.4662431
0.69591016 1.1071998 0.64197534 1.3555323 -0.7649916 -0.12320973 0.99440545 0.30072537
1.1132605 -0.42199072 0.513517 0.757514 0.06829752 -1.3561659 -0.003979978 0.6129428
-0.39769834 1.8159487 1.4964632 -0.0022073733 0.90914863 -1.7418795 -1.0254915 0.21844693
-0.2501139 0.532014 -0.24198373 -0.31438217 -1.9619008 -0.3528384 0.89322335 1.1500458
1.7994413 0.8505881 -0.03999216 0.9418946 -1.1360732 1.2584087 1.4557173 1.7973667
-1.4166143 0.79174393 1.2606567 0.26429754 0.19240795 -0.8119885 0.72539717 0.83186424
0.2065726 -0.65379417 0.09461068 -1.4159503 0.75316066 1.2097795 0.23085698 0.031025676
0.056370027 0.23567653 1.0581123 -1.0151625 1.389988 -2.3528612 -0.79875463 0.13123672
-0.44624874 -0.2807388 1.4044578 -0.7896286 -1.5843575 0.5702735 -1.0389681 -0.22882372
0.78723824 1.5557752 -0.41103476 1.4223111 -0.13629551 -0.6239478 0.5869509 0.949408

weight_ih_l0 f4 [8, 5]
00000000: 0dc6 8f40 eb27 15c0 c05c cf3f fe87 1fbf
00000010: 683e 86bf 7638 223f 8bcd 6140 43af 19c0
00000020: 8226 b0bf 47b5 9940 7fbb ecbc 9b0c 0c3f
00000030: 9239 b7be 524d 00bf 4714 223f 7c0b f6bf
00000040: b435 3840 bc71 1540 a63b fdbf 71b5 8dbf
00000050: cc3d 55be ceaf 1cbf 277d 1640 13c0 61c0
00000060: 7ce4 12be 709a 52c0 bc6c 0840 7ea4 1ac0
00000070: 1095 89bf 93c2 9740 a6bc 2cc0 91ee 0bc0
00000080: 450b 0f40 22d9 a7be f922 0d3f 7053 5340
00000090: 6ee1 ef3f 31ad 64c0 9e36 7740 5d32 693f
4.492926 -2.3305614 1.620018 -0.6231688 -1.0487795 0.633674 3.5281703 -2.4013221
-1.3761752 4.8033786 -0.028897999 0.54706734 -0.3578611 -0.5011798 0.6331219 -1.9222255
2.8782778 2.3350668 -1.9783828 -1.1070997 -0.20824355 -0.61205757 2.3513887 -3.5273483
-0.14344972 -3.290676 2.1316366 -2.4162898 -1.0748615 4.7425017 -2.6990142 -2.186436
2.2350628 -0.32782847 0.5513149 3.3019676 1.8740671 -3.5730708 3.8627086 0.91092473

weight_hh_l0 f4 [8, 2]
00000000: 80df c63e 635e ed3e 1073 f33d d5b0 87be
00000010: e9a6 16be ec5b aec0 994c 12be a039 ec3f
00000020: c587 1d3f 3a94 d63f 585b 38c0 6acf 94c0
00000030: 4e51 36c0 6e5b 1bc0 e70b c13d 8414 2dbf
0.38842392 0.46361074 0.11887181 -0.265021 -0.14712109 -5.448721 -0.14287032 1.8455086
0.6153529 1.6763985 -2.8805752 -4.650319 -2.8487124 -2.4274554 0.09426098 -0.6760943

bias_ih_l0 f4 [8]
00000000: d4ee 1cc0 1987 bc3f c20f 04c0 9cd7 f23f
00000010: d91e ac3f 3684 aebe f232 c83f 2990 49bc
-2.452077 1.4728729 -2.0634618 1.8972049 1.3446914 -0.34085244 1.5640547 -0.012302437

bias_hh_l0 f4 [8]
00000000: aca0 2bc0 685b c33f 1db3 dfbf c807 8c3f
00000010: b426 723f db95 7dbe df96 ac3f 4847 183e
-2.6816816 1.526227 -1.7476536 1.0939875 0.94590306 -0.24764197 1.3483542 0.14870942

weight_ih_l0_reverse f4 [8, 5]
00000000: 5221 e33f c398 2cc0 386e 9f3f 7171 12bf
00000010: bbda 1440 e77c 96bf 9347 f83e c15e 1440
00000020: 9904 19bf 5106 4140 4b48 f8bf 32ab a53e
00000030: ff7b 0ec0 80d5 e0bf 54b2 19bf 216c d6be
00000040: e2d0 933f 1cf6 943e 75ca 8a40 a688 0340
00000050: c503 db3e ec02 243f 3c42 0940 1bf7 87c0
00000060: 663b 3bbf 7796 1b40 dd2b a43f 4233 4cbf
00000070: b29e 50c0 3817 48be c7d7 7540 a064 1d40
00000080: 0ac9 733f a824 8b3f fe4d ba3f a28e eebf
00000090: c549 ac3f 9402 c13e 730e 6cbe 42f8 21c0
1.7744544 -2.6968238 1.2455511 -0.5720435 2.3258502 -1.1756867 0.48492107 2.3182833
-0.5977264 3.0160105 -1.9397062 0.32357174 -2.2263181 -1.7565155 -0.6003773 -0.4187937
1.1548121 0.29094017 4.337214 2.0552154 0.42776313 0.6406696 2.1446676 -4.2489142
-0.7313751 2.4310586 1.2825886 -0.79765713 -3.259686 -0.19540107 3.841295 2.4592667
0.95228636 1.0870562 1.4555051 -1.8637278 1.3460013 0.3769728 -0.23052387 -2.5307775

weight_hh_l0_reverse f4 [8, 2]
00000000: de44 dfbf 6ad3 a9be bdce e3bf dc1a e43e
00000010: 11b8 a6c0 2f61 523c b1da 6a3f 0de7 8140
00000020: 4e77 443f b39b 3dc0 3f6c fcbf 60c6 c7bf
00000030: 4d7b 5dbf b610 1a3f 0251 223f 7991 d23f
-1.7442892 -0.3316911 -1.7797467 0.44551742 -5.209969 0.012840553 0.91739947 4.0594544
0.76744545 -2.9626281 -1.9720534 -1.5607414 -0.8651627 0.6018175 0.6340486 1.6450645

bias_ih_l0_reverse f4 [8]
00000000: 5550 10c0 b9c6 28c0 d0cc d23e 02c8 fa3f
00000010: 5763 cabe 920b 713f 51be 38be 1475 ae3f
-2.254903 -2.637129 0.41171885 1.9592288 -0.39528915 0.9415828 -0.1804135 1.362948

bias_hh_l0_reverse f4 [8]
00000000: 885d 29c0 8522 0ec0 1a6c 8a3f d4c2 b93f
00000010: 1e40 5dbf a99f ba3f e295 6fbf 6396 1240
-2.6463337 -2.220857 1.081424 1.4512582 -0.8642596 1.4579974 -0.9358808 2.2904289

weight f4 [5, 4]
00000000: c08b 5cc0 e241 70bf 6e4e 7a40 e880 2bc0
00000010: 279d 8fc0 7c2e d9bf 02db 8140 acc3 41bf
00000020: 286f ef40 d220 3240 d601 05c1 9b94 4a40
00000030: 992c 2ebe 1615 7a3e c95e 9dbd 1e2a ad3e
00000040: 88b0 813e 74af a23e 640f c93e 4bd2 debd
-3.4460297 -0.9385053 3.911037 -2.6797428 -4.4879336 -1.6967311 4.0579844 -0.75689197
7.482319 2.7832532 -8.312948 3.1653202 -0.170092 0.24422106 -0.076840945 0.33821195
0.25329995 0.31774485 0.39269555 -0.10879954

bias f4 [5]
00000000: baf9 a5bf 3603 60bf b2ed a33f 4aae 593e
00000010: 481f c1bd
-1.2966835 -0.875049 1.2806914 0.21257892 -0.094297945
