testPyTorch/model_800_300.pkl (torch_old, 114531 bytes, 14 tensors)

hidden f4 [2, 1, 2]
00000000: 3249 d1be eb34 403f 96f4 17bd 24fb 05bf
-0.40876156 0.75080746 -0.03709849 -0.52336335

hidden f4 [2, 1, 2]
00000000: aeb3 a6bf 2a1e 7f3f 4894 cabf f048 01c0
-1.3023584 0.996554 -1.5826502 -2.0200768

weight f4 [4523, 5]
00000000: 0146 c1bf 6403 44bf e2dc f2be 0f4f d1bf
00000010: a0af 15be bc53 1cbf 5bb1 5fbf d799 bebf
00000020: 8664 35bf f722 a63e 3d55 85bf f54a c7be
00000030: 202b adbd 5eb9 d53f a105 5b3e e102 bb3d
00000040: 2db3 38be 218b 2fbf 9538 fa3f fbf5 543e
00000050: fe1f 883f 81c5 4ebe 69b8 80bf 2e8d 8b3f
00000060: c4aa 863f e131 3cbb 3ea3 1ac0 4d75 aabf
00000070: 37e3 8b3e c132 00bf 7fa0 66bf 0656 5d3d
00000080: af55 3d40 104e d13e 8d13 093f aa6e 4bbf
00000090: 5546 763e 78e8 ab3d 00a4 983d dae2 fbbe
000000a0: 64aa ecbd fe3e 6f3e 4ff2 23be cef2 e3bc
000000b0: e93b 1640 3ac8 85bf e218 c53f 7b38 21bf
000000c0: 8c34 73bf c3b3 0b3f 004f 4b3d 417d 15bf
000000d0: c0e3 3d3f c04b 023f ef46 913f 5242 e73f
000000e0: 1587 fe3e 7ccb 943f 0fca eebd 8297 c7be
000000f0: 1958 c53f 0121 42bf 55be 53c0 9be5 53bf
00000100: 2c31 5139 db55 7cbf 8b7d 8ebf 3f25 92bf
00000110: 5001 fbbe a4c4 b0be eaff d43f 89e6 35bd
00000120: 6fa8 31bf aed0 55be a138 7bbf ec73 44bf
00000130: 0c03 36bf 7a23 09bf f345 1f3f c40f 7fbf
00000140: fb0e e0be a63e b5be fe0e 1ebf 1c77 8c3f
00000150: c266 b6bf 78db dfbe 5f8b f9be db92 b5bd
00000160: aa4e 453f 0660 f2be a38a 86bf c409 0f3f
00000170: 9900 cabf 4503 04bf ed09 8f3e 6559 0c40
00000180: b399 873c 7ce5 593f 8143 613f df23 a2bf
00000190: 5996 b93f 5fed 5fbf f998 79bf 6d43 803f
000001a0: 6af5 893f 37da 153f 154a 2abe abed a6be
000001b0: 6aa7 01c0 2ae1 09bf 1b3d bbbf 99ac 88bf
000001c0: 0a55 583f aed4 0fbf a13d a83f 8a7d 4b3f
000001d0: 0dc9 813e b212 a83e c173 fc3e d251 d3be
000001e0: 5cb5 2a40 c727 c1be e81b cd3d 1494 0140
000001f0: 28d3 f7bf c487 f33f fa7c c3be 8f56 233f
00000200: 37d6 823f b29b ecbf 0a75 de3e 3f73 9e3f
00000210: 69eb 04bf 2eeb e4bf 65af 133f 868e 27bf
00000220: 876a ecbf 2839 fcbf 3bcd d63e 7aa7 d03e
00000230: b022 1040 a716 3d3f fcd1 cf3f 5cb7 ebbf
00000240: 2644 b0bf fc07 7dbf 40b9 b93f ac55 253f
00000250: 0bbc d63e 63c9 edbe 8ff7 163f b0a0 c4bf
00000260: 5309 093f ac15 013e 76a2 743e 6e7c a53f
00000270: 7c41 dd3f 4d7b e73f b153 3abf 062d 2040
00000280: 86d8 e83e ef9e c0be d835 57bf 995f c1be
00000290: 2ae5 23bf 6667 78bf 61c3 3a3f 9773 7a3f
000002a0: 9771 a03e 9d93 c03f 8f43 b33f 49de 03c0
000002b0: 6091 87be aa7e 65bf 6417 87be 1853 9f3c
000002c0: 148e 0c3f 9a1e 9d3f 6b30 4d3f 7d06 d13f
000002d0: 1933 61bf 8287 d03e ebbf 5e3e ab60 25be
000002e0: 4cc9 0340 be6d 1abe 7b2d 393f 1faf d23f
000002f0: a02d e83e 341e c83f e8d2 ccbe 5321 8f3f
00000300: e781 15bf 8619 3a3f e24f e23f 6531 5bbe
00000310: aa23 053f 7863 e7bf 6e3f 3cc0 50ab 0ebf
00000320: 1bcb 0cbf ed7f 6e3f 1df2 5cbf 10f6 fb3e
00000330: c1ce c1bf ac4b 33be 6292 333f a0b4 683d
00000340: 5ab0 663f 37da 853f 4bf3 0abf 4ad5 b43f
00000350: 24ab 733e afba ea3f f5db e93f de91 a53f
00000360: bd3f 6dbf ec08 9f3f 5654 9e3f 81e9 f1be
00000370: 6bc6 4b3e e1e2 20bf 799c b63f ec0a e03f
00000380: d8d3 d33f 31b2 09bf 946a 87bd b841 babf
00000390: 5b3d 6d3f 5d96 a53f b849 bb3e 51d9 c23e
000003a0: 8930 c6bd 1e1e 9d3e 5b9f 723f 6e7e b0bf
000003b0: ba89 da3f 4409 16c0 b6b1 71bf 158c 933e
000003c0: bb7a 4f3e aefd 633f fd3b a03f f704 44bf
000003d0: 5478 6abf c734 acbe dab6 a03e fd6d 113e
000003e0: 9caf 263e 412b d5be 0a2e 13bf e230 753f
000003f0: 6e8c b1bd 63dd a3bf 4181 c3bd 7555 1a3f
-1.5099488 -0.76567674 -0.47434145 -1.6352252 -0.14617777 -0.6106527 -0.8738 -1.4890698
-0.7085651 0.3244855 -1.0416638 -0.38924375 -0.08455491 1.6697195 0.21388866 0.091314085
-0.180371 -0.6857167 1.9548517 0.20796959 1.0634763 -0.2019253 -1.0056278 1.090246
1.0520864 -0.0028716254 -2.4162135 -1.3317047 0.2732179 -0.50077444 -0.9008865 0.054037116
2.9583547 0.4087987 0.5354546 -0.79465735 0.24050267 0.08393949 0.074531555 -0.49196512
-0.11555937 0.23363873 -0.16010402 -0.02782574 2.3474066 -1.0451729 1.5398219 -0.6297681
-0.95002055 0.5457117 0.049635887 -0.5839425 0.74175644 0.50896835 1.1349772 1.8067114
0.49712434 1.1624599 -0.11659633 -0.3898278 1.541751 -0.7583161 -3.308492 -0.82772225
0.00019950111 -0.98568505 -1.1132063 -1.1417617 -0.4902444 -0.34525025 1.6640599 -0.04440931
-0.69397634 -0.20880386 -0.98133284 -0.7673938 -0.710984 -0.5356976 0.6221611 -0.9963343
-0.4376143 -0.3539936 -0.61741626 1.0973849 -1.4250109 -0.4372213 -0.48739144 -0.08865901
0.77073157 -0.47338885 -1.0511059 0.55874276 -1.5781432 -0.5156749 0.2793726 2.1929562
0.016552782 0.8511579 0.8799363 -1.2667197 1.4499007 -0.87471575 -0.9749904 1.0020577
1.077802 0.58536094 -0.16629823 -0.326032 -2.0258431 -0.538592 -1.4628023 -1.0677673
0.8450476 -0.561839 1.3143808 0.7948843 0.25348702 0.32826763 0.49307063 -0.4127336
2.6673193 -0.3772566 0.10015088 2.024663 -1.9361315 1.9025807 -0.38181287 0.6380395
1.0221623 -1.8485014 0.4344867 1.237892 -0.5192171 -1.7884271 0.57689506 -0.6545185
-1.847001 -1.9704943 0.41953453 0.40752774 2.2521172 0.7386269 1.6235957 -1.8415332
-1.3770797 -0.9884031 1.4509659 0.6458385 0.4194034 -0.46442708 0.58971494 -1.5361538
0.5352985 0.12605923 0.23890099 1.2928598 1.7285609 1.8084503 -0.7278395 2.502748
0.45477694 -0.37621257 -0.84066534 -0.37768248 -0.6402155 -0.97032773 0.72954375 0.97832626
0.31336662 1.5045048 1.4004992 -2.0604422 -0.264781 -0.896464 -0.26385033 0.019448802
0.54904294 1.2274964 0.80152005 1.6330105 -0.87968594 0.40728384 0.21752898 -0.16150157
2.0591612 -0.15080926 0.7233502 1.6459693 0.4534731 1.5634217 -0.4000466 1.1182045
-0.5840134 0.72695196 1.7680628 -0.21405561 0.52007544 -1.807723 -2.9413714 -0.5573015
-0.54997414 0.9316395 -0.86306936 0.49211168 -1.5141221 -0.17509335 0.7014524 0.056812882
0.9011284 1.0457219 -0.54277486 1.4127591 0.23795754 1.8338221 1.827025 1.293514
-0.9267538 1.2424598 1.2369487 -0.47248462 0.19899909 -0.6284619 1.4266502 1.7503333
1.6549025 -0.53787524 -0.06612125 -1.4551306 0.92671746 1.2936512 0.3657968 0.38056424
-0.09677226 0.3068704 0.9477441 -1.3788583 1.7073281 -2.3443155 -0.9441179 0.28817812
0.20261662 0.8905896 1.2518307 -0.76570076 -0.91589856 -0.33634016 0.31389505 0.14202113
0.16277927 -0.41634563 -0.57492125 0.95777714 -0.08669363 -1.2801937 -0.095461376 0.6028665

weight_ih_l0 f4 [8, 5]
00000000: 0a6e 053f 28d0 333e 30c3 8b3e 9c5c 973f
00000010: e477 30bf f796 11bf 85eb 48bf d017 e43f
00000020: 4eaa abbe 6700 eb3e abd1 ab3e d0de 8b3e
00000030: 6263 47bf 6fa1 4c3f 7791 123f a0d7 393e
00000040: ded8 5d3f 97c6 233f 150f b63c eec6 9a3e
00000050: 5a85 d83e 53d1 ecbf 1eac 0d3e e52e e83f
00000060: 8d80 a43d 7f9d 9a3e a96a 4c3f ec09 edbe
00000070: 0db1 7c3c 7713 263f 33e5 583f 63c7 fbbe
00000080: cb5c a8bf d2d2 1ebf 8244 a0be aba3 8bbf
00000090: 8160 c13e cf82 113f f1dd 813f a1d7 f1bd
0.5212103 0.17559874 0.27297354 1.1825137 -0.6893294 -0.5687098 -0.78484374 1.7819767
-0.3352837 0.45898744 0.335584 0.2731843 -0.7788602 0.7993383 0.5725321 0.1814866
0.8665904 0.639749 0.022223989 0.30229896 0.4228924 -1.8501381 0.13835189 1.8139311
0.080323316 0.30198285 0.7985025 -0.46296632 0.015423072 0.6487345 0.8472473 -0.49175557
-1.3153318 -0.62040436 -0.31302267 -1.0909323 0.3776894 0.56840223 1.0145856 -0.11808706

weight_hh_l0 f4 [8, 2]
00000000: 3403 dfbb 4553 153b ad48 1dbf 2719 033f
00000010: d467 153d 9a99 663f 594e 63bf 246f 6f3e
00000020: c5f1 afbd 7e83 a6be fccf 7a3e dbe0 cebe
00000030: ea7e 753f ed50 26bf 395b 8abf b52a 293f
-0.0068058018 0.0022785228 -0.6143902 0.51210254 0.03647597 0.9007813 -0.88791424 0.2338224
-0.08591036 -0.32522196 0.24493402 -0.40405926 0.9589678 -0.6496723 -1.0809089 0.6608079

bias_ih_l0 f4 [8]
00000000: 8337 103f a55e 08bf 74cb 383f 3ca4 fc3d
00000010: f0b9 83bf 5b48 b93f 3d65 ae3f 62b3 56bd
0.56334704 -0.53269416 0.72185445 0.12336013 -1.0291119 1.4475206 1.3624645 -0.052417167

bias_hh_l0 f4 [8]
00000000: dadb 573f 3061 8e3e 3235 233f 7be5 f13e
00000010: ac8f 2bbe 64c4 af3f 4b49 003e e82d 6e3f
0.8431984 0.27808523 0.63753045 0.47245392 -0.16754025 1.3731809 0.12527959 0.930388

weight_ih_l0_reverse f4 [8, 5]
00000000: 2ea1 083e 7d4a a43e 29e0 53bf 4eca 603f
00000010: e99c 523f d03b 4abe e76d 2dbe 9a80 023f
00000020: 7939 cbbd 1ba0 08bf 21c5 2dbf efce 233e
00000030: f58d d93e 98f6 8a3e 0b23 863f 6bc1 c43e
00000040: 7a19 2abf a9c4 3dbf 22b0 c9bd 25f8 a83e
00000050: c6fd 3b3e 4a1f a73f bce0 9b3e b17c 693e
00000060: 9be6 363f d0fe e93e 0efa 3abf 46e0 a53f
00000070: 91c7 d83e fcc2 873c 76a4 adbe 846d d33f
00000080: 3594 353e ed4d 8a3f a559 b13f 9119 b03f
00000090: a0a7 29bf 0078 583f 15eb ee3e 7911 823d
0.13342735 0.3208808 -0.82763916 0.8780869 0.82270676 -0.19749379 -0.16936456 0.5097748
-0.099230714 -0.533693 -0.6787892 0.15996908 0.42491117 0.2714126 1.0479444 0.38428816
-0.66445124 -0.74128205 -0.09848048 0.3300182 0.18358526 1.3056424 0.30444896 0.22801472
0.71445626 0.4570222 -0.73037803 1.2959068 0.42339757 0.016572468 -0.33914536 1.6517797
0.17732318 1.0805031 1.3855482 1.3757802 -0.662714 0.84558105 0.46663728 0.06350989

weight_hh_l0_reverse f4 [8, 2]
00000000: e03a 263f 3dc8 d5be 6bcd 1abf d0fb 0fbf
00000010: cc56 01bd 37c8 90bd 6cf6 f63e 6442 133e
00000020: efc4 423f f90b 283f d8df 163f 0e19 4a3f
00000030: 511c d9be 6bda b7be 4333 573e 5ba8 ea3e
0.64933586 -0.41754332 -0.6046969 -0.5624361 -0.031576917 -0.07069438 0.4823488 0.14380795
0.76081747 0.6564327 0.5893531 0.7894448 -0.42404416 -0.35908827 0.21015649 0.4583157

bias_ih_l0_reverse f4 [8]
00000000: dac8 7d3f 085b 973e 7391 cd3e f688 7e3f
00000010: 771a 78bf 2057 b9bf 10f8 153e 9bcc 653f
0.991346 0.2956164 0.4015003 0.99427736 -0.9691538 -1.4479713 0.1464541 0.8976533

bias_hh_l0_reverse f4 [8]
00000000: bacd 5f3d 643f 813f b589 873e b717 503b
00000010: 37e8 e8be 768a e8bd 6155 3e3e 16c9 ae3d
0.054639556 1.009747 0.2647225 0.0031752416 -0.45489666 -0.11354534 0.18587257 0.08534448

weight f4 [5, 4]
00000000: d0f6 b93f c00f 10c0 6a92 81bf 5a24 0740
00000010: ed35 f93f be89 50bf 3b08 2e40 b300 593d
00000020: 5f3d 66c0 e325 1d40 86b7 26c0 ef96 d2bf
00000030: d4ad a3be cc6b 0ebe 4804 c9bd 5ea0 f13e
00000040: 00aa 563e b638 88be 8874 b73e 585e 05be
1.4528446 -2.2509613 -1.0122807 2.1115937 1.9469582 -0.8146018 2.7192523 0.052979182
-3.5974958 2.4554374 -2.6049514 -1.6452311 -0.31968558 -0.13908309 -0.0981527 0.47192663
0.20963287 -0.26605767 0.35831094 -0.1302427

bias f4 [5]
00000000: 0133 8fbf 9087 803e 0294 be3f c2a5 80be
00000010: 78c3 19be
-1.118744 0.25103426 1.4888918 -0.25126463 -0.15015972

transitions f4 [5, 5]
00000000: 1c13 19bf cbe5 19bf 70f9 f13f 3efd edbe
00000010: d0ca 1bc6 cbc9 cb3f a737 0d40 26d9 7ac0
00000020: 381a dfbf d0ca 1bc6 01c9 00c0 70d7 d4be
00000030: e2b2 983e 7d28 253f d0ca 1bc6 d0ca 1bc6
00000040: d0ca 1bc6 d0ca 1bc6 d0ca 1bc6 d0ca 1bc6
00000050: c284 63bf 8f9b 0fbf bb3d d43f d637 68bf
00000060: d0ca 1bc6
-0.59794784 -0.6011626 1.8904247 -0.4648227 -9970.703 1.5920957 2.2065217 -3.9195037
-1.7429876 -9970.703 -2.0122683 -0.41570616 0.29823977 0.64514905 -9970.703 -9970.703
-9970.703 -9970.703 -9970.703 -9970.703 -0.8887445 -0.5609674 1.6581339 -0.907102
-9970.703
