testPyTorch/model_BMES_9.pkl (torch_old, 102189 bytes, 14 tensors)

transitions f4 [5, 5]
000000 0a 48 83 bf 53 9e ba bf 8b 1e b9 3e c6 b8 e2 be
       -1.025636 -1.4579567 0.36156115 -0.44281596
000010 92 ce 19 c6 76 d1 79 40 92 24 5d 40 6e ed b9 c0
       -9843.643 3.9034095 3.455357 -5.810233
000020 40 c0 32 c0 92 ce 19 c6 27 f6 08 c0 28 33 a2 3f
       -2.792984 -9843.643 -2.140024 1.2671862
000030 aa 3b 32 40 27 8a 0e 40 92 ce 19 c6 92 ce 19 c6
       2.7848916 2.2271821 -9843.643 -9843.643
000040 92 ce 19 c6 92 ce 19 c6 92 ce 19 c6 92 ce 19 c6
       -9843.643 -9843.643 -9843.643 -9843.643
000050 ef 31 7c 3e f4 91 5c bf 9c d0 08 40 8b 67 4e be
       0.24628423 -0.86160207 2.1377325 -0.20156686
000060 92 ce 19 c6
       -9843.643

hidden f4 [2, 1, 2]
000000 30 28 3c 3e a0 52 70 3e f3 ff df bc 24 fd ab be
       0.18374705 0.23469019 -0.027343726 -0.33591568

hidden f4 [2, 1, 2]
000000 a6 8e 4a 3f 41 ee d9 3f 21 61 fa bc 56 ad f1 be
       0.79123914 1.7025834 -0.030563893 -0.47202557

weight f4 [3951, 5]
000000 42 67 bf bf 1e e4 3b bf a1 b5 24 bf 7c 20 cb bf
       -1.4953387 -0.73394954 -0.64339644 -1.5869288
000010 3d 68 c5 bd 6e 87 63 bf 54 73 9f bf d9 56 c2 bf
       -0.096390225 -0.88878524 -1.245707 -1.5182754
000020 bf f6 b8 be 50 1e 82 3f 7d 83 83 bf 9a e6 c3 bd
       -0.36125752 1.0165501 -1.0274502 -0.09565468
000030 0c 79 d2 be 62 0e 9c 3f 17 5c bd be 46 35 ed 3e
       -0.41107976 1.2191889 -0.3698432 0.46329707
000040 c5 15 36 bf 73 74 8a bf bf fe 3e 3f 71 d6 b8 3e
       -0.7112697 -1.0816787 0.7460746 0.36101106
000050 b2 c6 5e 3f c2 59 57 3e 6a 89 2a bf e7 61 3d 3f
       0.87021935 0.21030334 -0.6661593 0.7397751
000060 cc 82 8f 3f 11 7f 8a be c4 d8 07 c0 ca 9e b4 bf
       1.1211791 -0.2705007 -2.1226053 -1.4110959
000070 61 aa 2b 3d 2f e6 43 bf ac 22 24 bf 26 89 c1 3e
       0.041910533 -0.7652311 -0.64115405 0.37799948
000080 59 cc d2 3f 8d b8 bc bd 32 2d 4e 3e 99 74 41 bf
       1.6468612 -0.09214888 0.20134428 -0.7556854
000090 93 b4 57 3e 5a 7f 3d 3d 49 95 1a 3e 0e ca e8 be
       0.21064977 0.04626403 0.1509601 -0.45466655
0000a0 20 32 db bd 91 8f a7 3e 43 b5 23 be 8a 9a 16 bd
       -0.1070292 0.3272672 -0.15987115 -0.036768474
0000b0 05 ff 12 40 59 54 88 bf c4 3c cb 3f 62 0d 0b bf
       2.2968152 -1.0650741 1.5877919 -0.54317296
0000c0 93 d2 60 bf 0e 23 23 3f 51 8c 82 3d 39 b2 c8 be
       -0.8782131 0.63725364 0.063744195 -0.39198473
0000d0 a7 a9 33 3f 7c 82 d1 3e a4 93 8a 3f f2 f5 e2 3f
       0.70180744 0.40919864 1.0826306 1.7731307
0000e0 fd fa 50 3e cf 27 85 3f 57 0f 8f 3c 75 1f 2c bf
       0.20408244 1.0402774 0.01746337 -0.672355
0000f0 24 86 c6 3f d8 4d 5e bf 6d 0f 50 c0 68 27 4b bf
       1.5509686 -0.8683753 -3.2509415 -0.79357004
000100 9b 59 a4 bd 7d 18 74 bf e4 c7 0b bf de c7 80 bf
       -0.080249034 -0.95349866 -0.54601884 -1.0060995
000110 9e d5 80 be 07 a3 cf bc 1a ff d5 3f 64 d8 a1 3b
       -0.25162977 -0.025346292 1.6718476 0.004939126
000120 04 b7 3e bf bb e5 77 be a2 0e 82 bf cb b1 7b bf
       -0.7449801 -0.24208729 -1.0160716 -0.98318166
000130 3e de 99 be d5 4b 07 bf 74 d2 0c 3f 81 66 5a bf
       -0.3005237 -0.52850085 0.55008626 -0.8531266
000140 89 bf fb be e0 64 6e 3e d6 ff 15 bf de 6e 32 3f
       -0.49169567 0.23280668 -0.585935 0.6970042
000150 2b 84 ac bf 4a 84 d5 be 40 9d 91 3e b4 53 06 be
       -1.3477834 -0.4170249 0.28440285 -0.13117868
000160 af 9b 7b 3e 74 99 bc be 59 38 7a bf 7a 91 33 3f
       0.24571107 -0.36835825 -0.9774223 0.70143855
000170 4a 33 84 bf a9 1c fa be ca 1f 88 3e 65 b7 f1 3f
       -1.0328152 -0.4884999 0.26586753 1.8884093
000180 b0 cf 30 3f 4e 44 93 3f d7 e3 55 3f 97 df 6b bf
       0.69066906 1.150522 0.8355078 -0.92138046
000190 75 2e b3 3f df 7c 45 bf f1 2c 6d bf d6 10 86 3f
       1.3998553 -0.77143663 -0.926467 1.0473888
0001a0 4b 42 a4 3f 62 e1 f9 3e 88 49 53 be f8 bf 31 3d
       1.2832731 0.48804766 -0.20633519 0.043395966
0001b0 8a ee f3 bf f3 70 f9 be 01 72 c8 bf cf d5 a6 bf
       -1.9057171 -0.48718986 -1.5659791 -1.3033999
0001c0 35 f8 06 3f 2a 38 d5 be 6b 88 90 3f 01 fa 4e 3f
       0.52722484 -0.41644412 1.1291631 0.80850226
0001d0 06 23 54 3e bb 3a a0 3e 95 5b 06 3f a1 8b cd be
       0.20716485 0.31294808 0.52483493 -0.4014559
0001e0 73 1c 1e 40 2e 44 51 be 92 06 45 3d 1c 34 f5 3f
       2.4704864 -0.20436165 0.04810197 1.9156528
0001f0 c7 fb f5 bf a9 e0 da 3f 46 76 04 3e 7e c3 b7 3e
       -1.9217461 1.7099811 0.12935743 0.35891336
000200 e2 8d 37 3f c1 a4 d8 bf 4e ca c7 3e 6d 30 93 3f
       0.7170087 -1.6925279 0.39021534 1.1499153
000210 c9 da 95 be 0e 57 df bf 05 a8 13 3f 49 9a 4b bf
       -0.29268482 -1.7448442 0.5767825 -0.79532295
000220 91 96 cb bf ef 98 eb bf a1 34 09 3f 0d 56 27 3f
       -1.5905324 -1.8406047 0.5359593 0.6536568
000230 8d df 0f 40 11 fc 27 3f f6 b0 da 3f a0 6d e0 bf
       2.2480195 0.65619 1.7085254 -1.7533455
000240 da 73 ab bf e2 8b 15 bf 94 8a e8 3f aa 3b 26 3f
       -1.339473 -0.5841657 1.8167291 0.6493479
000250 af 8f 85 3e 35 bf ba 3b 51 dc 06 3f 72 c7 c4 bf
       0.26086184 0.005699063 0.52679926 -1.5373366
000260 cd 32 02 3f 56 fd f2 3d 4b 9b 87 3e 67 2e 94 3f
       0.50858766 0.11864726 0.26485667 1.1576661
000270 3e fd e2 3f f2 25 ee 3f fd 6e 01 bf 1b af 24 40
       1.7733533 1.860533 -0.5055998 2.5731876
000280 cd 0c fb 3e 70 15 35 be 77 f6 49 bf 5b 4e e4 be
       0.49033204 -0.17683959 -0.788917 -0.4459103
000290 22 c9 0e bf 1b ba 65 bf 3e e6 53 3f 84 fb 7a 3f
       -0.55775654 -0.897371 0.82773197 0.9804003
0002a0 47 94 9a 3e 86 08 c6 3f 4d d2 95 3f 55 50 ea bf
       0.30191252 1.5471351 1.1704804 -1.8305765
0002b0 bd ce ae be 0e f4 66 bf 6b f5 5a 3d 43 82 93 bd
       -0.34142104 -0.9021615 0.053456705 -0.0720258
0002c0 7b 49 67 3f c0 97 90 3f 0e 55 03 3f a8 ae c8 3f
       0.903465 1.129631 0.5130166 1.5678301
0002d0 32 65 5e bf c6 63 ac 3d 60 f4 11 be 78 1a c5 be
       -0.8687316 0.08417468 -0.14253378 -0.38496757
0002e0 9f 5e dc 3f ae b9 a7 be 5b 5e 78 3e d3 95 a8 3f
       1.7216376 -0.3275885 0.24254744 1.3170723
0002f0 47 63 de 3d c3 7b 84 3f bb 5e b2 be c4 14 70 3f
       0.108587794 1.0350269 -0.348379 0.93781686
000300 e4 e0 19 bf 37 9b 4b 3f f6 e2 d0 3f 12 e7 41 be
       -0.6010878 0.79533714 1.6319263 -0.18935803
000310 95 8b f2 3e 55 68 e2 bf f0 e2 36 c0 70 08 0e bf
       0.47372118 -1.768809 -2.8576012 -0.55481625
000320 b6 d2 09 bf c4 99 73 3f f2 d7 57 bf 3a fa 0f 3f
       -0.53837144 0.951565 -0.8431388 0.5624119
000330 77 a3 be bf 6c 38 47 bd 6b f4 38 3f 67 cf fa bc
       -1.4893636 -0.048637792 0.7224795 -0.030616475
000340 a3 89 56 3f 9d 5b 81 3f e5 ed 10 bf b2 5f ab 3f
       0.83803767 1.0106083 -0.56613 1.3388579
000350 b1 18 51 3e 1b 27 f5 3f 85 3d e4 3f b7 36 a9 3f
       0.20419575 1.9152559 1.7831274 1.3219823
000360 72 bc 76 bf 42 e6 9c 3f f7 10 97 3f 0a 23 05 bf
       -0.96381295 1.2257769 1.1802052 -0.5200659
000370 0c 50 62 3e dd f4 10 bf 01 db b7 3f 60 c4 dd 3f
       0.22100848 -0.5662363 1.436371 1.7325554
000380 b1 69 d0 3f 16 60 de be 94 d7 a2 be 9a 5c b7 bf
       1.6282254 -0.43432683 -0.31805098 -1.4325135
000390 e4 79 a0 3f 9b f7 a1 3f 22 14 04 3e f9 4c ed 3e
       1.2537198 1.2653688 0.12898305 0.46347788
0003a0 fa c8 be bd ec b5 07 3f d0 fa 70 3f 42 2d 97 bf
       -0.09315677 0.53011966 0.9413271 -1.1810687
0003b0 32 e3 d0 3f 08 2c 0c c0 d9 41 83 bf 9f 35 b4 3e
       1.6319335 -2.1901875 -1.025447 0.3519716
0003c0 4f 29 58 3e 47 0c 6d 3f a4 0f b9 3f 65 3b 0c bf
       0.21109508 0.9259686 1.4457898 -0.5477813
0003d0 e2 7b 3b bf 61 52 11 be 06 6f 0a be bc 52 f4 3c
       -0.73235905 -0.14191581 -0.13518915 0.029824607
0003e0 d8 a5 ba 3e ee 41 fc be e3 b5 5a be 75 24 39 3f
       0.36454654 -0.4926905 -0.21358447 0.72321254
0003f0 01 83 96 be de 21 c6 bf a7 06 af be a9 29 0a 3f
       -0.29396823 -1.5479085 -0.34184763 0.5396982

weight_ih_l0 f4 [8, 5]
000000 e9 d6 d1 bf 27 fe 74 3e 36 53 e7 3e b4 07 8c 3f
       -1.639371 0.23925076 0.45180672 1.0939851
000010 98 30 21 3e 0a 52 f1 be e3 38 cf 3c 32 89 f8 3e
       0.15741193 -0.47132903 0.02529568 0.48542172
000020 d0 d5 05 3f 7d 62 81 3e 72 fd 69 3e ec 4c b7 be
       0.52279377 0.25270453 0.22850588 -0.35800874
000030 61 6f cd 3e 36 ed 09 3a 47 2b c1 be c6 da e7 3d
       0.40124038 0.00052614824 -0.3772833 0.113210246
000040 40 c4 1c bf 16 10 2f bb 85 ca cc bd 35 57 2d be
       -0.61236954 -0.0026712469 -0.09999565 -0.16927798
000050 09 59 0a bf 26 8b 21 c0 cf 31 8e 3e e5 bd b7 3e
       -0.54042107 -2.524118 0.27772376 0.35887066
000060 e9 5f 85 3f c5 7f 2d bf 52 7b 90 3e 69 94 5d 3e
       1.0419894 -0.67773086 0.28219086 0.21638645
000070 b9 ee 48 3f 6e 10 f5 3e a1 d9 2a 3e 5d b1 46 3f
       0.7848926 0.47864097 0.16684581 0.77614385
000080 07 47 81 bf 59 d0 6e be 5f c2 c5 3c 0f 42 8d 3e
       -1.0099801 -0.23321666 0.024140535 0.2758946
000090 3b a8 15 3f ec 8a 35 bf d8 b6 72 be 5c 36 51 bf
       0.58459824 -0.709151 -0.23702562 -0.8172357

weight_hh_l0 f4 [8, 2]
000000 83 dc 0b 3f 0b cd 36 3f 34 07 0c 3f f2 11 06 3f
       0.5463335 0.7140662 0.5469849 0.5237113
000010 18 c0 f3 3e 1e 53 92 3f 99 95 39 bf 9d 37 ab bd
       0.47607493 1.1431615 -0.7249389 -0.08360217
000020 73 96 d4 3e 46 d7 fe 3c 78 6a 15 bf cf b7 4f bf
       0.41521034 0.03110851 -0.58365583 -0.81139845
000030 f7 b4 ef be d9 04 23 3f 85 c5 f3 3e c4 4e 29 be
       -0.46817753 0.6367927 0.47611633 -0.16533953

bias_ih_l0 f4 [8]
000000 d7 1b a6 bf 84 da 1f 3e 60 89 13 3f 18 ff c7 3e
       -1.2977246 0.15610701 0.5763149 0.3906181
000010 e2 d1 32 bf a3 e6 e8 3c bc b8 99 be bf 7f 9e 3e
       -0.69851506 0.028430289 -0.30023754 0.30956838

bias_hh_l0 f4 [8]
000000 85 35 1d c0 7d 11 66 3e c0 a2 f0 3e a9 92 87 be
       -2.4563916 0.22467609 0.46999168 -0.2647908
000010 fc 15 70 bf 86 bc 8b be f7 01 b0 3e 39 53 02 3f
       -0.93783545 -0.2729227 0.343765 0.5090824

weight_ih_l0_reverse f4 [8, 5]
000000 da 3e 01 c0 55 42 2e bf 02 67 e6 be 46 bb 12 3f
       -2.0194612 -0.68069965 -0.45000464 0.57317007
000010 04 db 8c bf 6d ca 7a bf 24 fd 2d 3f 27 af 20 bf
       -1.1004338 -0.9796513 0.67964387 -0.6276726
000020 d6 ac 44 3e be c8 16 bf c0 7c 84 3e e0 73 63 be
       0.19206557 -0.5890006 0.25876427 -0.22212172
000030 1e 02 d7 bd c4 31 d9 be 70 26 74 3b 4a 43 a2 3f
       -0.10498451 -0.4242078 0.0037254356 1.2676785
000040 34 dd a8 3e 0b 52 a8 3e 46 73 30 bf 7c 30 6f 3e
       0.32981265 0.32875094 -0.68925893 0.23358339
000050 90 fc 60 bf d7 01 b9 3f 30 d7 a9 be 6e 4a 46 bf
       -0.8788538 1.4453686 -0.33171988 -0.7745732
000060 d1 27 1f c0 32 c9 28 3f 1b 09 ca 3d c7 5c 64 bf
       -2.4868052 0.65932 0.09865018 -0.89204067
000070 44 5f ec 3f b5 74 4b 3f fe 91 dd 3e bc 02 92 be
       1.8466573 0.79474956 0.43275446 -0.2851771
000080 67 fc 5c 3f 20 99 9e be 69 ab 68 3f 3e e3 7f bf
       0.86322635 -0.309762 0.9088655 -0.9995612
000090 2b 9b ee 3e 04 22 5d 3c 3a 1e c9 3e 89 1a 8c 3a
       0.4660276 0.0134968795 0.39280874 0.001068906

weight_hh_l0_reverse f4 [8, 2]
000000 bc 79 90 bf 20 f4 e3 3d 74 60 0a bf 18 09 95 bf
       -1.128715 0.111305475 -0.54053426 -1.16434
000010 06 f9 1c bf fe 0c 60 40 1b 10 16 3e 91 d0 29 3f
       -0.6131748 3.500793 0.14654581 0.6633387
000020 57 9e 88 3d 7a 4c bf 3f a6 4f 3f 3d 15 31 89 bd
       0.06670826 1.4945214 0.046706818 -0.06698815
000030 c2 dd 2b be af 0c 2e 40 d8 e3 93 bf 98 ea e4 3e
       -0.16783813 2.7195241 -1.1553907 0.4471023

bias_ih_l0_reverse f4 [8]
000000 2e 6d d0 bf d7 49 bd bf 28 b4 16 bf 38 17 ae 3f
       -1.6283319 -1.4788159 -0.58868647 1.3600836
000010 e2 24 d4 3e ee 06 4e bf 43 18 9e 3f 6a 00 84 3e
       0.4143439 -0.80479324 1.2351154 0.25781566

bias_hh_l0_reverse f4 [8]
000000 44 fe 79 bf 0c 07 a0 bf 5f 9a 60 bc 21 8e 1d 3f
       -0.97653604 -1.250215 -0.01370868 0.61544997
000010 99 c8 1d 3f 35 2a bf bf 65 bd 28 3f d4 b3 37 3f
       0.6163421 -1.4934756 0.65913993 0.7175877

weight f4 [5, 4]
000000 07 42 6f 3f 91 e0 df 3f 05 aa 4c 3f c6 b2 e3 be
       0.93460125 1.7490407 0.7994693 -0.4447233
000010 bb 53 49 3f f0 ef a0 bf b7 37 07 40 da d6 79 3e
       0.7864339 -1.2573223 2.1127756 0.24398366
000020 cb ff 39 c0 68 65 51 bf dd 51 27 c0 8a ec b8 be
       -2.9062374 -0.8179536 -2.6143715 -0.36117965
000030 f8 72 b6 be 21 2f e3 be 64 2e 79 be 17 9c de 3e
       -0.3563459 -0.44371894 -0.24334103 0.43478462
000040 5a 92 55 be 33 74 a1 3e a3 59 c9 be af c9 fd bd
       -0.2085661 0.31533965 -0.393262 -0.12391984

bias f4 [5]
000000 98 8d 83 bf 1c 1d 91 bd 6a ca f8 3f c7 2f 28 bc
       -1.0277586 -0.0708563 1.9436772 -0.010265297
000010 8b de a6 be
       -0.32591662
